…
isplayName":"A Random Duck","photoUrl":"https://lh6.googleusercontent.com/-vHVx2wEoVLY/AAAAAAAAAAI/AAAAAAAABJU/_Nw5p1HaueU/s64/photo.jpg","userId":"18346532358449882761"},"user_tz":480},"outputId":"cda2f8b0-2098-4147-e0b0-8f08124f1c37"},"source":["model.summary()"],"execution_count":null,"outputs":[{"output_type":"stream","text":["Model: \"sequential_1\"\n","_________________________________________________________________\n","Layer (type)                 Output Shape              Param #   \n","=================================================================\n","conv2d_3 (Conv2D)            (None, 148, 148, 16)      448       \n","_________________________________________________________________\n","max_pooling2d_3 (MaxPooling2 (None, 74, 74, 16)        0         \n","_________________________________________________________________\n","conv2d_4 (Conv2D)            (None, 72, 72, 32)        4640      \n","_________________________________________________________________\n","max_pooling2d_4 (MaxPooling2 (None, 36, 36, 32)        0         \n","_________________________________________________________________\n","conv2d_5 (Conv2D)            (None, 34, 34, 64)        18496     \n","_________________________________________________________________\n","max_pooling2d_5 (MaxPooling2 (None, 17, 17, 64)        0         \n","_________________________________________________________________\n","flatten_1 (Flatten)          (None, 18496)             0         \n","_________________________________________________________________\n","dense_2 (Dense)              (None, 512)               9470464   \n","_________________________________________________________________\n","dense_3 (Dense)              (None, 1)                 513       \n","=================================================================\n","Total params: 9,494,561\n","Trainable params: 9,494,561\n","Non-trainable params: 0\n","_________________________________________________________________\n"],"name":"stdout"}]},{"cell_type":"markdown","metadata":{"id":"DmtkTn06pKxF"},"source":["The \"output shape\" column shows how the size of your feature map evolve
…
